Cargando modelo desde: ./models/gpd_v2.keras
OK: input_shape=(None, 400, 3), output_shape=(None, 3)

=== Resumen de sequential_1 ===
Model: "sequential_1"
_________________________________________________________________
 Layer (type)                Output Shape              Param #   
=================================================================
 conv1d_1_1 (Conv1D)         (None, 400, 32)           2048      
                                                                 
 batch_normalization_1_1 (Ba  (None, 400, 32)          128       
 tchNormalization)                                               
                                                                 
 activation_1_1 (Activation)  (None, 400, 32)          0         
                                                                 
 max_pooling1d_1_1 (MaxPooli  (None, 200, 32)          0         
 ng1D)                                                           
                                                                 
 conv1d_2_1 (Conv1D)         (None, 200, 64)           30784     
                                                                 
 batch_normalization_2_1 (Ba  (None, 200, 64)          256       
 tchNormalization)                                               
                                                                 
 activation_2_1 (Activation)  (None, 200, 64)          0         
                                                                 
 max_pooling1d_2_1 (MaxPooli  (None, 100, 64)          0         
 ng1D)                                                           
                                                                 
 conv1d_3_1 (Conv1D)         (None, 100, 128)          90240     
                                                                 
 batch_normalization_3_1 (Ba  (None, 100, 128)         512       
 tchNormalization)                                               
                                                                 
 activation_3_1 (Activation)  (None, 100, 128)         0         
                                                                 
 max_pooling1d_3_1 (MaxPooli  (None, 50, 128)          0         
 ng1D)                                                           
                                                                 
 conv1d_4_1 (Conv1D)         (None, 50, 256)           295168    
                                                                 
 batch_normalization_4_1 (Ba  (None, 50, 256)          1024      
 tchNormalization)                                               
                                                                 
 activation_4_1 (Activation)  (None, 50, 256)          0         
                                                                 
 max_pooling1d_4_1 (MaxPooli  (None, 25, 256)          0         
 ng1D)                                                           
                                                                 
 flatten_1_1 (Flatten)       (None, 6400)              0         
                                                                 
 dense_1_1 (Dense)           (None, 200)               1280200   
                                                                 
 batch_normalization_5_1 (Ba  (None, 200)              800       
 tchNormalization)                                               
                                                                 
 activation_5_1 (Activation)  (None, 200)              0         
                                                                 
 dense_2_1 (Dense)           (None, 200)               40200     
                                                                 
 batch_normalization_6_1 (Ba  (None, 200)              800       
 tchNormalization)                                               
                                                                 
 activation_6_1 (Activation)  (None, 200)              0         
                                                                 
 dense_3_1 (Dense)           (None, 3)                 603       
                                                                 
 activation_7_1 (Activation)  (None, 3)                0         
                                                                 
=================================================================
Total params: 1,742,763
Trainable params: 1,741,003
Non-trainable params: 1,760
_________________________________________________________________

=== Detalle por capa ===
00 | conv1d_1_1                | Conv1D          | out=(None, 400, 32) | filters=32 kernel=(21,) stride=(1,) units=None activation=linear params=2048
…
